save_model/admet_model.ckpt (torch, 375815 bytes, 69 tensors)

weight f4 [50, 50]
00000000: ab75 95bd 11ab 9b3d b5b4 66bd 246f d23c
00000010: 0092 ab3c c23f e1bd c5df deba 402d 133e
00000020: afa8 c0bc 753d b8bd a26d a03d 4496 c7bd
00000030: 86e7 dcbd 892f 0d3e 69dd 0ebd 9e3b 8a3d
00000040: d0e9 943c 32ba 53bd e650 e03d 62e5 e6bd
00000050: 92fd e23d 081c 7e3d 86a3 963d 5818 b73d
00000060: 331b f23c 1d4c d63d 13ae 063e b6f1 0cbe
00000070: ecb0 283d ce62 7dbd 10d3 093d 7563 0dbd
00000080: 18e2 873d 7df2 fcbd 2a2a 193d 0c62 0ebd
00000090: 303a 7d3d 148a 0b3d 74d4 853d d5a8 a93d
000000a0: ad30 5f3b f87b efbd 1ce2 92bc a44e cfbd
000000b0: 3927 f83d 5668 aa3d 679d 8c3d d433 a03d
000000c0: 14cc e8bd 548a 8bbc 9874 6a3d 9fa7 d23d
000000d0: e7c8 fe3d 54d4 293d a003 20bc a476 c03d
000000e0: 8896 a5bd 2ef6 44bd 7075 0c3d 8e25 06be
000000f0: ce3b 35bd 8455 cebd 8a81 a83d 1ffc 0ebe
00000100: 94b2 9b3d fe3b 9d3d e050 633d 6d69 0d3e
00000110: 7e44 d63d d11e debd e8ba ad3d 7fa5 f1bd
00000120: fdca eabd fc7c 01be cd19 ae3c 4e6b 5fbd
00000130: 90dd d9bd 1c3a b5bd 40ff 48bb 0c40 d13d
00000140: 0a2f f73d 0834 9abd 38a1 be3c 331f f5bd
00000150: b001 dbbd a6d8 abbd 40d1 00bd aa9a d3bd
00000160: 6b71 073e 6541 a5bd 7c24 263d d573 d83d
00000170: 0e92 be3d 5c3b d8bc 2aee 26bd ee4a 78bd
00000180: 2ee8 01be 888b e1bd 8ad6 fc3d d6b4 ad3d
00000190: 065e 16bd 70e3 233d 524a c83d e3cc f73d
000001a0: 41b6 90bd 0033 333a ec68 d6bc 13e2 59bd
000001b0: c454 04be 7f0d d9bd c07d 493d 006c 2db9
000001c0: c608 8e3d b82c 9dbc 9cdd b8bd 37b2 033e
000001d0: bef1 b5bd 261f 8f3d 388c a53d b286 f83d
000001e0: 57d1 06be b84f 5e3d 06f7 9bbd 68e5 e03c
000001f0: a6f5 c53d c119 403d 5daa 31bd f060 703b
00000200: 2063 763c f2c4 903d b8b6 c63c 3974 cf3d
00000210: 2858 d03d 4577 debd e97c 053e 5054 c6bd
00000220: 8d27 58bd 0623 68bd ba74 913d d056 f8bc
00000230: fd87 08be 7402 a13d ea88 bfbd e379 0fbe
00000240: e64e f7bb b845 233d d0dc ec3d 393b fc3d
00000250: c05f f4bc bbbd febd 997b eebd 4b61 a33d
00000260: e5bb 8cbd 3333 243d f8fa 553d 4097 14bd
00000270: d4a6 413a 9c90 113e 02c6 03be e050 a63c
00000280: 003d 093c 5fea 8bbd 52de ad3d 10e8 21bc
00000290: 5302 aa3c b0f6 c43d 46e0 853d 7298 d63d
000002a0: 4c60 a23d 1497 0cbe e7d6 073e b85a febd
000002b0: 745a b2bd f0a8 e13c 013c 023e 0947 8c3d
000002c0: bd09 943c 0b56 4b3d aaa8 db3d 1e91 63bd
000002d0: a8c4 d83d 5bb0 783d 0090 7dbd 60bf 8abd
000002e0: a041 c738 64ef 023e ce23 043e e8b7 2b3d
000002f0: 30df 8f3d 7205 313d 0dbd d93d e93f 03be
00000300: c0ae c43c a79e 1b3e fe7d 9ebd 4244 a13d
00000310: 237c 0abe a6ba babc 4c93 43bd 3687 bc3d
00000320: 3fd8 493d fa19 10bd fa24 e33d 63a2 03bd
00000330: 555b 813d 72d5 61bd ed94 c5bd 79d0 403d
00000340: 8908 8f3d fa4d db3d bac3 8ebd a7e2 013e
00000350: be78 ba3d a136 fdbd 1081 743d 0854 3e3d
00000360: c29c ed3d e752 a1bd 2620 983d 8f65 98bd
00000370: 4000 fa3b 00b2 17ba 4050 febc a889 cfbd
00000380: b7c7 043d 6b21 abbd b8ed 913d 68b9 16bc
00000390: 3891 13bd 0208 ec3d 3ce8 c43d 9947 f53d
000003a0: ba6f 4dbd e0da 173c 0e10 08be e39c ebbc
000003b0: d488 8bbd 1c29 ae3d e6fc 13be db5a 9c3d
000003c0: 8d91 843d fe54 12bd a737 0d3e 7afc 04bd
000003d0: da03 ba3d 6ee8 d83d 43f9 813d 30af 263d
000003e0: f409 9b3d 7531 01be 2cd5 223d d7f1 ec3d
000003f0: 091b 02bd c8e6 abbd 9340 033e 0f58 f2bd
-0.07297834 0.07600988 -0.05632468 0.025687762 0.020943642 -0.10998489 -0.0017003944 0.1437273
-0.023517935 -0.08996097 0.07833411 -0.09745458 -0.10786347 0.13787664 -0.034879122 0.06749652
0.018177897 -0.05169124 0.1095293 -0.1127422 0.11083521 0.06203845 0.07355408 0.0894019
0.029553985 0.10463736 0.13152342 -0.1376408 0.04118435 -0.061861806 0.03364855 -0.034518678
0.06634921 -0.123509385 0.037393726 -0.034761474 0.06182307 0.03406723 0.06534663 0.08284155
0.0034056113 -0.11693567 -0.017930083 -0.101224214 0.12116856 0.08320682 0.068659596 0.078223854
-0.1136705 -0.017033733 0.0572401 0.102858774 0.12440663 0.041462258 -0.009766489 0.09397629
-0.08085352 -0.048086338 0.034291685 -0.13100263 -0.044246487 -0.100749046 0.082278326 -0.13963364
0.076024204 0.07677458 0.05549705 0.13809748 0.104622826 -0.108457215 0.08482915 -0.11799144
-0.11464498 -0.12645334 0.021252537 -0.054545693 -0.10637963 -0.08848974 -0.003066972 0.10217294
0.12069519 -0.075294554 0.023270234 -0.119688414 -0.10693681 -0.08390932 -0.031449556 -0.10332234
0.1322686 -0.08069114 0.040562138 0.10568968 0.093052015 -0.026395492 -0.040754475 -0.060618334
-0.12686226 -0.110129416 0.123456076 0.08481757 -0.03671076 0.040011823 0.097798005 0.12099626
-0.07066012 0.00068359077 -0.026173078 -0.053194117 -0.1292296 -0.10598277 0.04919219 -0.00016538799
0.06935267 -0.019186363 -0.09026644 0.12860952 -0.08883999 0.06988363 0.08083385 0.12135066
-0.13165794 0.054275244 -0.07615475 0.02745314 0.09665994 0.04689956 -0.04337536 0.0036678873
0.015038282 0.07068814 0.024257049 0.101295896 0.101730645 -0.108625926 0.1303593 -0.0968405
-0.052772094 -0.056674026 0.07102342 -0.030314833 -0.13333125 0.07861796 -0.09352286 -0.1401134
-0.007547247 0.03986141 0.11565554 0.12315983 -0.029830813 -0.12438532 -0.11644668 0.079775415
-0.068717755 0.04008789 0.052241296 -0.036277056 0.0007387225 0.1421532 -0.12868503 0.020302236
0.00837636 -0.06831812 0.0848967 -0.009881988 0.020753061 0.096173644 0.065369174 0.104782954
0.079285234 -0.13729507 0.13265572 -0.12419647 -0.08708659 0.027546376 0.12718202 0.068494864
0.01807105 0.049642604 0.107255295 -0.055558316 0.10584384 0.06071506 -0.061904907 -0.06774783
9.501283e-05 0.12786633 0.12904283 0.041923434 0.070249915 0.043218084 0.10631762 -0.12817349
0.024009109 0.1519724 -0.07738875 0.07874347 -0.13523917 -0.022794079 -0.047747895 0.09205477
0.049278494 -0.035181023 0.11091037 -0.032137286 0.06316248 -0.055135198 -0.09647546 0.047073815
0.0698405 0.10708232 -0.06970926 0.12684117 0.09105061 -0.12363935 0.059693396 0.046466857
0.11602165 -0.078771405 0.07428007 -0.07441246 0.0076294243 -0.0005786717 -0.031044126 -0.10133678
0.032417025 -0.08355983 0.071254194 -0.009199478 -0.036027163 0.11524965 0.09614608 0.11976547
-0.05015538 0.009268492 -0.13287374 -0.028761333 -0.06813207 0.08503935 -0.14451942 0.07634517
0.06473074 -0.035725586 0.13790761 -0.032467343 0.09082766 0.105912074 0.06346371 0.040694416
0.07570258 -0.12616523 0.039754078 0.11569565 -0.031764064 -0.083936274 0.12817602 -0.11833202

weight f4 [50, 50]
00000000: 2b82 e83b ec9e c93d c1c0 ae3d 3486 0c3e
00000010: e7f0 a3bd 71a5 d53d 2fee ac3d 827b 6f3d
00000020: 8d72 46bd d325 723d 3574 123d b22a 9e3c
00000030: 75fd c1bd b3bc 763d 192c 3cbd b01c a33d
00000040: 919d eaba 124a eb3d f2fa 43bd 4d8e 40bd
00000050: 3b7b 0a3b 66b2 08be be85 99bc bb44 c43d
00000060: 204b 0e3d 96ee abbc 4040 043d 5217 febc
00000070: 12e2 de3d 86ff d53d 82bd 293d 2b37 5dbd
00000080: 2fbb 02bd 3d27 0c3e 93d0 ab3c 3740 61bd
00000090: 9c9b 113d d365 edbb 0cd6 583d c9ec 363d
000000a0: ac77 e63c 1650 f6bd 2aaa 71bd cff4 e1bd
000000b0: db6f a1bc b0a6 0a3e 9458 123e 5ad3 e2bd
000000c0: c7a5 a5bd 82fc 143e c08c 47bc 87e3 02be
000000d0: 2b6b 9abd 1854 883d 9a42 873d 1bef b0bd
000000e0: c03c 0a3b 2699 62bd 700c e93c 2cc6 19bd
000000f0: e681 a7bd 1d11 97bd 4830 bcbc 300a 7dbc
00000100: 48d7 2abd 64da 95bd 3d6c 83bd 3296 9bbd
00000110: 6d7f 0d3e f896 00be 5cb0 873d ac3f 9abd
00000120: 78a4 70bd f8fb d7bc 3555 0cbe 9a3a ce3d
00000130: a76d 9cbd 7c9e f3bd 60e4 21bd 8ea8 0bbd
00000140: f15d d5bd 1c82 a9bd 58ac 8e3c 08ac b83d
00000150: 349d 8fbc eea9 cdbd 6d5e 053e 8063 3fbb
00000160: 603c 913b 1405 93bd d46f b13d 70a2 6cbc
00000170: e8c6 a23c e01d 0d3d a2ca 96bd 087d d53c
00000180: 4043 913d 7529 b4bd 70e7 5b3d 188e e0bc
00000190: b64d 03bb fef5 c33d 76f1 35bd a5e2 003d
000001a0: e6de fabc b6de 4a3d 7d85 51bd 442f 1ebc
000001b0: 9a0d 44bd 15d9 fa3d 891f 00be 39a0 123d
000001c0: ed79 0fbe 1702 853d 7cde babd ca6a b5bd
000001d0: affe 253d 170e 573b c0c0 a73b 008d 15be
000001e0: a838 443d 677b e9bd 23a3 523d 49c2 d5bd
000001f0: be72 53bd 3257 c8b9 080a debd cb93 f63d
00000200: 09cf 8dbd 57e8 a8bd 302c e23c d4eb 933d
00000210: 5965 e03b a267 02be 0fc6 e43b b3fd 04be
00000220: c0a7 db3c 4521 a83d 6035 3fbd eea0 fa3d
00000230: 9c6b 283b e1da 123d c39f c2bb 03ea 063e
00000240: 453b ddbd 001c c03d ff67 b83d 0f5b c2bd
00000250: b8a2 b93d 9ff5 82bd c1e5 b9bd 09f6 c73d
00000260: 6a5f b2bd 1342 ca3d 5793 03bc 2b94 21bc
00000270: 587c d93d f794 87bd f9bb fe3d 0c51 d73d
00000280: 31ac eb3d ae8d e33d 681a 7e3d 87d2 d43b
00000290: 9e7b 943d 7612 89bc f5d9 313d f6dc d1bd
000002a0: b83e f6bc be82 c93d 639e b3bd 3076 c73d
000002b0: b6a8 da3d fa51 48bc e051 6d3d e275 b63d
000002c0: 092d 28bd 76bb a8bd 55f1 063e 2606 163e
000002d0: 5a5c 033e 9fa7 e0bd 8fc4 833b 78cf f03d
000002e0: c34b 163e 7f03 d83c 0cac a8bd 8ebd 9e3c
000002f0: 8169 e1bd 6cbb 81bd e1a2 63bd c5de 98bd
00000300: fdb7 9bbd 00bb be3d e29f 38bd 6091 ccbd
00000310: 914f 143d 2553 173d 3183 8fbc 3752 1abc
00000320: 0a81 8b3d c2b2 b8bd 0470 8b3c 735c 06be
00000330: b36e 61bd 38b8 e4bd 7ea6 5cbd cbdb e13c
00000340: 7de5 e8bd dcb7 a03d 314b 1bbe d460 1cbe
00000350: 5075 6cbd 6fd5 18bc 5a51 d3bd aa18 a23a
00000360: ca7d 9d38 8340 1f3d f039 c33d 6dbb e9bd
00000370: c734 13be de25 f73d f5fb 3fbd fb0d 19bd
00000380: 4c77 89bd 4294 643d 0ac2 0bbe 1398 c63d
00000390: 2ee4 883d a6b5 b8bc 5c6c 12be ac41 993d
000003a0: 09be f2bd 42c1 e3bd ccbd d4bd a3b8 ff3d
000003b0: 9e30 dc3d 1677 f7bd 28b7 aa3d 7d11 863c
000003c0: b8d3 40bd 5b5a 13be 50c1 e0bd 0904 de3d
000003d0: e9b9 a5bc 7a9e c9bd 5fd3 d6bd 06cf 2cbd
000003e0: 3d21 023e bf34 aa3d ecdf d33b 1029 8d3d
000003f0: 5a1c 03be b059 f1bd c520 8d3d 4da7 ffba
0.0070955954 0.09844765 0.08532859 0.1372307 -0.08004933 0.10431946 0.084438674 0.058467396
-0.048449088 0.059118103 0.035755355 0.019307468 -0.09472171 0.06023855 -0.045940492 0.07964456
-0.0017899742 0.11488737 -0.047846742 -0.04701071 0.002113058 -0.13349304 -0.018740531 0.09583422
0.034739614 -0.02098779 0.032287836 -0.03101698 0.10882963 0.10449128 0.041440494 -0.05400769
-0.031916793 0.13686843 0.02097348 -0.05499288 0.03554879 -0.0072448044 0.052938506 0.04465941
0.028133236 -0.12026994 -0.05900017 -0.11033022 -0.019706657 0.13540149 0.14291602 -0.11075468
-0.0808826 0.14549449 -0.0121795535 -0.12782107 -0.07539972 0.066566646 0.066045 -0.08639356
0.0021093339 -0.055321835 0.028448313 -0.037542507 -0.08179073 -0.07376311 -0.022972241 -0.015444323
-0.041709214 -0.07317045 -0.06417129 -0.07597007 0.1381814 -0.1255759 0.06625435 -0.07531676
-0.0587506 -0.026365265 -0.13704379 0.10069771 -0.07638102 -0.11895463 -0.039524436 -0.034096293
-0.104183085 -0.082767695 0.017416164 0.09017187 -0.017531015 -0.10042177 0.13024302 -0.0029203594
0.004432246 -0.07178703 0.08663908 -0.014443025 0.019870237 0.03445232 -0.07362868 0.026060596
0.07092905 -0.0879697 0.053687513 -0.027411506 -0.0020035333 0.09568404 -0.04441973 0.031466145
-0.030623864 0.0495288 -0.051152695 -0.009654824 -0.047864534 0.12248436 -0.1251203 0.03579733
-0.14011355 0.06494539 -0.09124467 -0.08858259 0.04052609 0.0032814795 0.005119413 -0.14604568
0.047905594 -0.1140049 0.05142511 -0.104374476 -0.0516231 -0.00038211938 -0.10841757 0.12039908
-0.069242544 -0.0824744 0.02760896 0.07222715 0.006848019 -0.12734845 0.0069816182 -0.12987404
0.026813388 0.08209471 -0.04668176 0.12237726 0.0025698906 0.03585327 -0.0059394552 0.13175206
-0.108023204 0.093803406 0.09004211 -0.09490024 0.09064239 -0.06394505 -0.09077025 0.09763724
-0.08709605 0.09875884 -0.008030734 -0.009861986 0.1061942 -0.0662021 0.12438197 0.10513505
0.11507452 0.11111008 0.0620369 0.0064948234 0.072501406 -0.016732436 0.04342075 -0.10247223
-0.030059204 0.0983939 -0.08770444 0.09739339 0.1067671 -0.012226576 0.05793941 0.08909203
-0.041058574 -0.0823888 0.13177998 0.14650783 0.12828198 -0.10969471 0.0040212343 0.117583215
0.14677338 0.026368855 -0.0823594 0.019377496 -0.110064514 -0.06334576 -0.055575255 -0.07464365
-0.07603452 0.09313011 -0.04507435 -0.099886656 0.036208693 0.036944527 -0.017518612 -0.009419016
0.068117216 -0.0901847 0.017021187 -0.13121204 -0.05503721 -0.111679494 -0.053869717 0.027570626
-0.113718964 0.078475684 -0.15165402 -0.15271312 -0.057729065 -0.00932823 -0.10318251 0.001236697
7.5097734e-05 0.038879883 0.09532535 -0.11412702 -0.14375602 0.120677695 -0.046871144 -0.03736685
-0.06712207 0.055805452 -0.13648239 0.096969746 0.06684147 -0.022547554 -0.14299148 0.07483229
-0.118526526 -0.111208454 -0.103877634 0.124863885 0.107514605 -0.12083261 0.083357155 0.016365761
-0.04707691 -0.14389937 -0.109743714 0.108406134 -0.02023025 -0.0984468 -0.104895346 -0.04218962
0.12707992 0.08310842 0.0064659026 0.06892598 -0.12803784 -0.11784685 0.06891016 -0.0019504816

weight f4 [50, 89]
00000000: 3802 9abd 6770 7f3d 1827 c53d f4a3 613d
00000010: 08e1 4d3d 7623 223d 4ada c73d e748 34bb
00000020: ba0e 463d 501f e6bc 2fbc 953d 0293 003d
00000030: 687d bfbc 139d 803d 3d57 ee3c 457a b43d
00000040: 53f9 943d 5045 b6bd 0d4d 833d 00f8 1338
00000050: 2aa0 80bd c1ad 44bd 6921 8d3d 7936 843d
00000060: 3131 bcbd cb5e 5cbd fe47 b3bd 0182 c03d
00000070: 6061 37bb c778 63bc 4268 28bd 81fa 86bd
00000080: 9a41 0c3d de4a 5f3d b07d 42bc b9bd 9abd
00000090: 31c7 a53c 7298 c8bd 44a2 183d 901d b83d
000000a0: 5cc2 2cbd 3ac4 913d 7fb5 693d f582 3c3d
000000b0: 3d3b 0e3d 6ad7 b23d 9fe6 dd3d d016 c83d
000000c0: 1df2 d13d ecc2 aebc 4d66 a1bd 1d78 d43d
000000d0: 8164 cd3d c062 03b8 6ccc 6c3d aeaa 41bc
000000e0: 75bf babb aeb1 4c3d 6fbd adbd fc81 0c3d
000000f0: ebc1 b9bd d7cc b83d 9dd7 53bd 5c93 4b3d
00000100: 993b ce3d e83d 143d dbcd d1bb eb5b 353d
00000110: d0aa 1b3d 800c ad3d 091b ed3a ca01 dd3d
00000120: f4e5 103c ab03 6cbd 4210 bc3d ec79 cd3d
00000130: d02a 8e3d b6d5 963c 60e0 f33d b0df e93d
00000140: 9510 abbc 5cca 073d 9221 003d 3f6c 5ebc
00000150: 2f2d f4bc 6cff 8ebd 603f 81bd 2a8a ecbc
00000160: ff18 cd3d f4c0 c73d a160 2abc 8cc4 713d
00000170: c0ad 9dbd 9e03 593d 60a5 21bd af60 82bb
00000180: 8ced 9d3d 63d0 9c3d bc79 d33c 9081 b03b
00000190: 54a1 1abd 0e7d 6a3d 23e9 d73d ffdb d53d
000001a0: 1013 28bc 30ca 06bd f767 a83d c31b b23d
000001b0: b8b1 4fbc 7f4b cdbd f2f7 1ebd ac16 85bd
000001c0: c0b6 efbc 0665 6f3d 2778 82bd 34cd 33bd
000001d0: e09f 50bd 1981 a23d 8969 ce3c 5050 43bc
000001e0: e789 efbc 696d 913d 8c43 253d 693d 903d
000001f0: ec21 d6bd 44bb 623d 688b 87bd 97e3 ffbc
00000200: 8a68 0f3d 87e2 173d b2ef 423d 095a f8bc
00000210: 2298 dd3c 1bfe 353b 299d b1bd d8a7 bcbd
00000220: 17b1 843d e78e a3bc 9a71 71bd c382 8bbd
00000230: 4078 053d 3b49 94bd 3667 d3bd 23f6 28bd
00000240: a1e8 073d 3457 a2bd e5a3 65bd bdcb 8e3d
00000250: 14e9 c63d de93 adbd c027 7d3d 2d53 713d
00000260: 7a8c 533d 74b8 db3d 89c1 7dbd bbe0 aa3b
00000270: 6bbf 263c 2d84 813d 410f df3c 9ec2 4a3d
00000280: 3198 b9bc 8b57 763d 999d abbd 8a64 0a3b
00000290: f4cf bb3d 0829 cf3d 23fc b4bd 6ba7 17bd
000002a0: 7a57 d43c fdb7 d53b 14ee 443d 47ca aebd
000002b0: 7b56 053d c322 c33c bb11 163d 86ca de3c
000002c0: 0120 8ebd ebb0 ccbd b10c 4abd f86a 8a3d
000002d0: 6fc4 a9bd 6813 89bd 2a9b 0ebd f9b6 8a3d
000002e0: 439a 78bd 0175 8b3d aa1d b6bd 1016 bfbd
000002f0: 8006 693c eabd 24bd 76ca 90bd 6a2f a6bd
00000300: d1b9 aa3d b422 aebd 53eb 9a3d 32cd 553d
00000310: 5e93 303d 1843 133c 8088 553a c4eb 98bd
00000320: c07d 8bba 321b 633d 9d04 d7bd 464e a1bd
00000330: 5719 d3bd bb4d 283d 144d 9c3c fd9c 933d
00000340: dec7 423d a783 473c cf68 b13d 05cb 64bb
00000350: ef63 a53a 722c 3dbd c1bc f33c d70f 9a3d
00000360: 4fe6 9d3d 3770 9abd ff71 92bd 53c8 7fbd
00000370: 10da cfbd 2289 463d 5673 553d 0a4f c2bd
00000380: 4a04 a33d 334a 81bd a407 a1bd ec9d b83d
00000390: ba45 bbbb 491c 23bd d708 d4bd 8733 2cbd
000003a0: b8d4 03bd 4291 873d aaaf f93b 0836 7abc
000003b0: 8a0e 8bbd d376 9abd 3ffa 973b 2bb0 773d
000003c0: 3ab2 e5bd f172 903d d04b 15bc 4327 9fba
000003d0: 734e aa3d 9c7a c8bd 936d 9b3d 0225 b6bd
000003e0: d583 a5bd b29f 46bd 561f 8dbd 3083 753c
000003f0: b44d a43d 7176 f13c 523c 1dbc bdeb 8b3d
-0.075199544 0.062363055 0.09626597 0.055088 0.050263435 0.0395846 0.09758432 -0.0027509273
0.048353888 -0.028091103 0.07311284 0.031390198 -0.023375228 0.062799595 0.029094333 0.088123836
0.07274117 -0.08899939 0.06411181 3.52785e-05 -0.06280549 -0.048017267 0.06891138 0.06455702
-0.0918907 -0.05380134 -0.08753966 0.09399796 -0.0027981624 -0.013883776 -0.041115053 -0.065907486
0.03424225 0.05451476 -0.011870787 -0.07555718 0.020236583 -0.09794702 0.037264124 0.089900136
-0.042177543 0.07117505 0.057057854 0.046023328 0.034724463 0.08732493 0.10835003 0.09769976
0.102512576 -0.02133318 -0.078808405 0.10374472 0.10028935 -3.1324802e-05 0.05781214 -0.011820478
-0.005699093 0.049974136 -0.08483397 0.03430365 -0.0907019 0.09023445 -0.051719297 0.04970108
0.10069961 0.03619185 -0.0064027137 0.044277113 0.038004696 0.0844965 0.0018089722 0.10791357
0.008843888 -0.057620686 0.091827884 0.100330204 0.069417596 0.018412452 0.119080305 0.11419618
-0.02088193 0.03315197 0.031282015 -0.013575613 -0.029806701 -0.069823116 -0.06310916 -0.028874476
0.10014533 0.097536 -0.010399015 0.059025332 -0.07699156 0.052981965 -0.039464355 -0.0039788107
0.07711324 0.07656934 0.025814883 0.005386539 -0.03775151 0.057248168 0.10542514 0.104423515
-0.010258451 -0.032907665 0.08222955 0.086967014 -0.012676649 -0.10024165 -0.038810678 -0.06498465
-0.029261947 0.058445953 -0.063705735 -0.04389687 -0.05093372 0.0793478 0.025196807 -0.011921003
-0.029240562 0.071009465 0.04034762 0.07042963 -0.10455689 0.05535437 -0.066183865 -0.031236453
0.035011806 0.037081268 0.047591873 -0.03031637 0.027050082 0.0027769867 -0.08672554 -0.09211701
0.0647909 -0.019965602 -0.05894623 -0.0681205 0.032585382 -0.0724053 -0.1032242 -0.04125036
0.033180837 -0.07926789 -0.056064505 0.06972454 0.09712425 -0.08475469 0.061805487 0.058917213
0.05164764 0.10728541 -0.061952148 0.0052147782 0.010177474 0.06324039 0.027228953 0.049502008
-0.022655578 0.06014208 -0.08379669 0.0021117055 0.09170523 0.10115248 -0.08837154 -0.037024897
0.025920618 0.0065221773 0.04807861 -0.08534675 0.032553177 0.023820287 0.036638003 0.02719618
-0.06939698 -0.09994682 -0.04932851 0.06758684 -0.0828942 -0.066931546 -0.034815945 0.067731805
-0.06069399 0.06809426 -0.08892377 -0.0933038 0.014222741 -0.04022018 -0.07069866 -0.08114512
0.08336223 -0.08502713 0.07564416 0.052197643 0.04310929 0.008988164 0.0008145645 -0.07466844
-0.0010642335 0.055445857 -0.10498927 -0.078762576 -0.103075676 0.041089755 0.019079722 0.072076775
0.04755389 0.012177384 0.08662569 -0.0034911048 0.0012618284 -0.046184964 0.02975309 0.075225525
0.077099435 -0.075409345 -0.07150649 -0.062446903 -0.10149014 0.048470624 0.052111946 -0.09487732
0.079598024 -0.063129805 -0.078627855 0.09014496 -0.005715099 -0.039821897 -0.103532486 -0.042041328
-0.032185286 0.066195026 0.0076198177 -0.015271671 -0.067898825 -0.07542195 0.004637986 0.06047074
-0.11215635 0.07053173 -0.009112313 -0.0012142438 0.08315744 -0.09789011 0.07589259 -0.088937774
-0.080817856 -0.04849214 -0.068907425 0.014984891 0.08022633 0.029475423 -0.009596901 0.06832073

bias f4 [50]
00000000: ce8e af3c 5b3f e4bc 090e 0fbd 90bf a3bd
00000010: c298 5abd 23cc e83d a49b a0bd 0e9b cf3d
00000020: c9fd 793d 5a94 86bd e42f f83b 99f2 c13d
00000030: 5d52 d9bc 2e8f 8ebd 41a7 90bd bf54 3d3c
00000040: 346e c3bd b672 43bd fb76 d0bb c205 653c
00000050: c9fa 0cbc f4dd d63d b89d 973d b8ae 07bd
00000060: 8ad3 db3d 1aac 973d 2f48 933b 5d00 a63c
00000070: 8b57 933d 4a4a 24bd 9364 b9ba 1fc9 8f3d
00000080: a965 783d fba3 bdbd 8bd5 843d c0dc 9e3d
00000090: bc49 6dbc e151 72bd 7079 b9bd e8ad dd3c
000000a0: 9c37 b03d d956 ad3d 7a5f a03d 6606 89bd
000000b0: d6b8 b0bc 53fc e03d 75be bb3c a0ee ca3d
000000c0: 9cad 0d3c bf66 41bd
0.0214304 -0.027862241 -0.034925494 -0.07995522 -0.053368337 0.11367061 -0.07842186 0.10136996
0.061033044 -0.065712646 0.0075740684 0.094701 -0.026528532 -0.06960903 -0.07063151 0.01155585
-0.09542504 -0.04771682 -0.00636184 0.013978424 -0.008604714 0.10491553 0.07403129 -0.03312561
0.10733707 0.07405873 0.004494689 0.020263845 0.07194432 -0.04010991 -0.0014144353 0.07020783
0.060643826 -0.092597924 0.064860426 0.077569485 -0.014482912 -0.059160117 -0.090563655 0.027060464
0.08604357 0.084638305 0.07830711 -0.066906735 -0.021572512 0.10985627 0.022917965 0.09908795
0.008647349 -0.047217127

weight f4 [50, 50]
00000000: fc64 7c3d c004 0b3c 06ad f7bd e9c8 b4bd
00000010: d0d1 193c e23a 44bd 201c 083d dc59 763d
00000020: f05a 0a3c 7f96 073e 7f7c 82bd 2c1a ce3d
00000030: d348 033e e799 cdbd d4ae 46bd 60cb 60bd
00000040: e5ab 063e 0402 efbd dbc7 00be beb4 e9bd
00000050: ef52 8fbd bc6e 07bd 7888 e4bc 3820 1a3d
00000060: 2e86 e33d e619 35bd fae8 ccbd 3b0c 90bd
00000070: 561f b43d d43e 9a3d e0c7 c63c f0bd fbbd
00000080: 48d7 573d a668 9f3d 64a8 a2bc 42ba ef3d
00000090: 68bc cd3c c037 a2bc b4bb a2bd f7e7 0f3e
000000a0: bca1 5f3d f1cb d4bd 9aa2 f23d ed71 00be
000000b0: 442b 6d3d 3c0c cabd c9fd bdbd b485 1dbd
000000c0: a3de ddbd 4164 04be 4a98 04bd aa0e 0bbe
000000d0: c9af 043d 9ca2 8e3d 3469 edbd d4d7 9bbd
000000e0: de87 89bd 3c2f c43c b969 d9bd de41 ab3d
000000f0: d9d2 be3d 4caf aabd d3ed 93bd 5bca 5c3d
00000100: d2ea f8bc 3080 d13d 9a89 70bd 1f6e 7bbd
00000110: 8140 acbd 62c0 28bd cf75 eebd cf11 db3d
00000120: 5635 93bc 77e1 ffbd 6812 cf3d dc1c 87bd
00000130: a26b 69bd b2bc 1e3d 0fcd 82bb d533 3dbd
00000140: 4b03 08be cf8b 20bd 461b f83d 15d1 4bbd
00000150: a552 e5bc ec9d 2fbd ed4a 323d b1c1 043e
00000160: 22da dabd e497 74bd e249 293c b71c e13d
00000170: a959 053e 25e6 83bd 9944 5fbd 344a b7bd
00000180: fa19 223c 5db7 91bd a556 d5bd 9044 b63d
00000190: a304 f73d 4f72 54bd 4edd dabc 9d63 30bd
000001a0: d086 883d 8a42 cc3d f268 b1bd 040d fc3d
000001b0: fe45 8c3d 213e 5bbd 7e55 1f3c b6b6 61bb
000001c0: 54e9 f83d 7876 44bd df29 ba3c 9689 cd3d
000001d0: e26f 5abc 5af7 ffbd bb81 ddbd 5735 1cbd
000001e0: 1ec4 e8bc 82d4 8a3d 204b eb3d 1868 813d
000001f0: 40b6 a2bd 3334 74bc 3661 663d 5dac 21bd
00000200: 2ea6 6abd 1803 bdbd 73c4 033e dfbe 1e3d
00000210: b3b5 743d 31a5 59bd cd58 053e 7ce7 223e
00000220: 4102 183e 2b0b 19bd fb13 03be a873 113e
00000230: 46c3 f73d 6b9a 9dbd fe3c 933d 064b f93d
00000240: 226b 0d3d ab3a 8d3b e99c 333d 765b c9bd
00000250: f7e2 8f3d d284 193e 73c0 3ebd b785 a8bd
00000260: 3e9d 743d 7354 a4bd a7f8 0cbe 5a9f d5bd
00000270: ca43 0539 18de 1abe cfab 653c 68f8 bc3d
00000280: d877 163d 12a0 ad3d 64cc cb3c ef50 bfbd
00000290: d1f1 39bd f050 d53d 7e6c 023c 5ef1 bb3c
000002a0: c137 a2bd b8ab d9bd f24f ee3d 1ba0 e0bd
000002b0: 719b ff3c 9855 ef3d 7cb0 1bbd b508 df3d
000002c0: aa5b 51ba 51b4 d33d d55b 2f3d a401 8bbc
000002d0: ff22 1c3c e5d0 c43b 69f9 933d c913 e23c
000002e0: 9910 1ebd d918 90bd c3ae 073e 2529 b4bd
000002f0: a917 82bd df97 c93d 27d7 f63d ffb3 52bd
00000300: 0c0d 74bd b9f8 febd 43f8 15be 0697 f7bd
00000310: badc a0bd 1362 6bbd 4945 5f3d a3ab 5bbd
00000320: 9978 cd3d 1b8e cd3d cf63 64bd df43 a83d
00000330: 3b6e f03d 408d 303d 6e24 5e3b 98ae 9c3c
00000340: 8061 643d f3ec c5bd 27b6 973d 0259 8b3d
00000350: b7db 073e 8526 bfbd 8db7 3cbd ede5 333d
00000360: 0191 803c b0ee a2bd 1f09 8c3c 8be7 99bd
00000370: 604d a1bd 57ff aabd 4432 85bc 0e82 ff3d
00000380: fbc2 b0bd b08d 72bd 9712 81bd 3074 df3d
00000390: ea99 723c 29b1 a7bd 9faf 163e 966e 213d
000003a0: 590c 0f3e 2c28 2f3c 6abf c1bd 427b 503d
000003b0: 9854 a0bd 681a 9abc 3c84 4d3d ea1a f93d
000003c0: f6e3 c93d b77b fa3d b3ef 193e 8c59 0e3c
000003d0: 7260 83bd 0287 083e 9fa3 9b3d be1e d63d
000003e0: 502a b03d 7249 fe3d 58e8 333d 8448 bebd
000003f0: 965c 023e edaf a63d bda4 103d ea4a ddbd
0.061619744 0.008485019 -0.120935485 -0.08827383 0.009388402 -0.047907718 0.033229947 0.06014429
0.008444533 0.13241003 -0.06371402 0.10063586 0.12820749 -0.1003912 -0.048506573 -0.054881454
0.1315151 -0.11670306 -0.12576239 -0.11411427 -0.0699824 -0.03306459 -0.027897105 0.037628382
0.11109577 -0.04421415 -0.10005374 -0.07033583 0.08795039 0.07531515 0.02426523 -0.12292087
0.052695543 0.07783632 -0.019855686 0.11705448 0.025114253 -0.019801974 -0.07945958 0.14053331
0.0545976 -0.10390461 0.1184742 -0.12543459 0.05790259 -0.09865615 -0.09276921 -0.038457587
-0.1083348 -0.12928869 -0.032371797 -0.13579813 0.032394204 0.06964609 -0.115923315 -0.07609525
-0.06715368 0.023948304 -0.10615868 0.083621725 0.0931756 -0.083342165 -0.07223096 0.05390392
-0.030385409 0.10229528 -0.058724977 -0.061384317 -0.08410741 -0.041199096 -0.11643564 0.10696756
-0.017969768 -0.12494176 0.101109326 -0.06597301 -0.056987412 0.038754173 -0.00399173 -0.04619201
-0.13282506 -0.039195832 0.12114577 -0.049759943 -0.02799351 -0.042875215 0.043528486 0.12964512
-0.10686137 -0.059715167 0.010332556 0.10991805 0.13022484 -0.06440381 -0.05450878 -0.089497
0.009893889 -0.07115052 -0.10416917 0.08899796 0.12061431 -0.051866826 -0.026716854 -0.04306375
0.066663384 0.09973629 -0.08662595 0.1230717 0.068492875 -0.053526048 0.009724973 -0.003444118
0.12153879 -0.047964543 0.022725044 0.10036008 -0.013332339 -0.124983504 -0.1081576 -0.038136806
-0.028413828 0.06778814 0.11488938 0.063186824 -0.07944918 -0.014905023 0.05624505 -0.03947102
-0.057287388 -0.09229106 0.12867908 0.038756248 0.059743594 -0.053136054 0.13022156 0.15908617
0.1484461 -0.037364166 -0.1280059 0.14204276 0.12097792 -0.076954685 0.07189368 0.12172513
0.034525998 0.0043099723 0.043850813 -0.09831898 0.07025712 0.14992073 -0.046570253 -0.08228629
0.05972027 -0.0802392 -0.13766728 -0.104307845 0.00012709122 -0.15123785 0.014018013 0.09227067
0.036735386 0.084777966 0.024877734 -0.09341609 -0.04539663 0.10415828 0.007960437 0.022942241
-0.079207905 -0.10628456 0.11636342 -0.10968038 0.03120205 0.116862476 -0.038010105 0.108903326
-0.00079863763 0.10337127 0.042812187 -0.016968556 0.009529828 0.0060063475 0.072253056 0.027597325
-0.038590048 -0.07035989 0.1325026 -0.0879691 -0.06352169 0.0984342 0.12052756 -0.05144119
-0.059582755 -0.12449784 -0.14645486 -0.12089352 -0.078546 -0.057466578 0.054509435 -0.053630482
0.10032768 0.1003687 -0.055759247 0.082160704 0.11739775 0.043103456 0.0033896226 0.019126222
0.055757046 -0.09664335 0.0740779 0.06804086 0.13267408 -0.09333519 -0.046073485 0.043920446
0.015694143 -0.07955682 0.017094193 -0.075148664 -0.07876086 -0.083494835 -0.01625932 0.12475978
-0.086309396 -0.059217155 -0.06302374 0.10910833 0.014807204 -0.081880875 0.14715432 0.039412104
0.13969554 0.01069073 -0.094603375 0.050898798 -0.07828635 -0.01881142 0.050174937 0.121633366
0.09857933 0.12230628 0.15032844 0.008688342 -0.0641488 0.13332751 0.075995676 0.10455082
0.086018205 0.12416352 0.043922752 -0.09291175 0.12730631 0.08139024 0.035313357 -0.10805304

bias f4 [50]
00000000: d919 04be 5067 babd 0c39 da3d ce53 723c
00000010: 96b5 e43d 86bb ed3d 3dd8 2abc 214d b83d
00000020: 5991 a63d e060 033e 07a6 3cbd d341 dd3d
00000030: a1e4 b63d 3e93 b3bd da65 82bd 30af cf3c
00000040: 64f8 f7bd 08fe b33d bcba 7b3d 8abc ccbc
00000050: 9793 033c 25f5 8f3d 891e cdbd 559b 15bd
00000060: f023 ef3c 5e3e 91bc 1e66 21bd 383c 01bd
00000070: 34f2 1abd eade 65bd 26c8 cebd 02aa 8cbd
00000080: d451 51bd 002b f8ba f37d 633d 2c96 95bc
00000090: b46d afbc c0ea 76bd b46b 89bd 8e0a 153e
000000a0: 338b 813c ba52 d1bd 4b88 e83d eff1 f13c
000000b0: 6cb3 96bc 4c06 a63d 80c2 f0bc f447 07bd
000000c0: ba3e 35bd 35f0 d33d
-0.12900485 -0.091017365 0.10655412 0.014790488 0.11167447 0.11608033 -0.010427532 0.08999086
0.081331916 0.12829924 -0.046056774 0.108035706 0.08930326 -0.087683186 -0.06367083 0.02535209
-0.121079236 0.08788687 0.06145738 -0.024992246 0.008030794 0.070291795 -0.1001559 -0.03652509
0.029191941 -0.017729934 -0.039404027 -0.03155157 -0.03782864 -0.05612079 -0.10096769 -0.06868364
-0.051103428 -0.0018933713 0.055540036 -0.018260084 -0.021414615 -0.06028247 -0.06709996 0.14554808
0.015813446 -0.10220857 0.11354121 0.029534308 -0.018396102 0.0810667 -0.02938962 -0.033027604
-0.044249274 0.1034855

weight f4 [50, 50]
00000000: e0f6 e73b d9ca 093e b879 c23c 00d8 933a
00000010: 2c47 313d 400c 77bc 9648 d43d 0b7d 01be
00000020: 3af8 86bd a05a 543d 7013 49bc a952 063e
00000030: 30e7 463c c439 9ebd 2253 c6bd b223 00be
00000040: 2c90 5bbd 1b0c 0d3e 205d 6bbc 3281 fdbd
00000050: bcca a43d 7031 693d 2cc4 73bd e144 efbd
00000060: 3817 c73c e066 b73b d069 853c 8cf2 593d
00000070: d43b cf3d 8011 20bb 8895 613d c455 06be
00000080: 584b 9f3d 78b6 b23d 02fb e53d b29e ddbd
00000090: 7038 493d 4027 dbbb 084d c5bc 9876 073d
000000a0: dcd4 e8bc 20f4 73bc e805 003d de82 a3bd
000000b0: 6077 203c 7424 14bd f837 e0bc 3e5c 3ebd
000000c0: f2d0 fb3d fcc8 a7bd c8bb 783d 1631 01bc
000000d0: f38a 45bd cf61 01be 694b 59bd e8b7 1d3e
000000e0: b6a1 063e 775a be3d 659f 80bd 850e 883d
000000f0: ad67 08be 7177 013c 21b9 983d da53 933d
00000100: 75ba 843d 375b eebd 5119 9f3d c73c 48bc
00000110: 363a d03d 5275 a9bd 1ae1 c0bd 73e3 e33d
00000120: cd39 9bbd 3d3d d2bc 22d4 773c 3a7f b4bc
00000130: 3b11 63bc 4c41 d3bd 2ecd 103e 3308 b23c
00000140: 59e9 363d 0148 dc3d 6bb6 cf3c 5c45 fb3d
00000150: 4cf8 57bd fbff 03be 944c 693c 2b81 c03c
00000160: 2fb8 50bd 103f 803d 669a e3bd 63ff 963b
00000170: 2d44 d8bd 72b4 8dbd 49f7 b1bc ad34 293d
00000180: 8c8d aabd 8418 c0bd b079 93bc 799b 603c
00000190: fde4 f93c 56fe 06be 33f5 003d d3b2 7ebd
000001a0: 2096 193e 2dd7 cd3c 3319 69bc 2c0b 4d3d
000001b0: c5f1 01bc 8b9d 33bd 1fe4 febd 7a1a 9dbc
000001c0: fe60 1d3e aa02 8abd 3501 9a3c c87a 0a3e
000001d0: f4ed 71ba 5b11 e6bd 0d70 8b3d 7640 e6bc
000001e0: ab67 ebbd 9612 a2bd 5765 e43d 1661 303d
000001f0: 0c54 42bd 869d c63d 44f2 1b3e 63c1 03bd
00000200: 93aa 0d3e 1fb5 ddbd bc05 ad3d 7aec ecbd
00000210: 3193 a0bd d1db 29bd eab3 343c 4165 903d
00000220: 0e5e 1bbe d79c babd 94b1 a9bd 4145 ca3d
00000230: d70b 2dbd 825d c1bd a368 0c3e d51a babd
00000240: 0bde 02bd 21fc 583c f4dd 1839 29d0 e7bd
00000250: 5377 843d 600f 883d b6aa 573d c149 8d3c
00000260: c413 fc3b 0ec5 81bd 96ff efbc 74c7 d63c
00000270: b0fb cdbd 3ad8 eebc c7ba a5bd 5bfe cabd
00000280: c568 ebbd 053f 98bd 4451 96bd d31a 503d
00000290: 28f8 ee3d ad37 a3bd 1c3a 623b 09bc bb3d
000002a0: 913d f6bc 1b77 aa3c a091 81bb 8887 19be
000002b0: fa69 90bd 6f39 183d 0185 9b3b 846e 963d
000002c0: 75f4 9fbd 2b4b d83d 53f3 8bbc 7a96 6cbd
000002d0: 0f18 e23c e009 673d 84f1 d63d ffc2 71bc
000002e0: fe76 ca3d 427f eb3c b844 103c 92f1 503d
000002f0: 36c1 69bd 1343 f4bd aa5f 12be 16d6 ddbd
00000300: 8261 873d 92d7 a3bd 77ec 56bd 9343 9e3d
00000310: 186a c3bd a595 46bd 1b6e 053e b909 0fbe
00000320: f51a 183e 44e0 e23c 9916 653c abdb e4bd
00000330: d86d 103c 2abe a1bb dfe2 b63d 0b16 ce3d
00000340: 3216 cb3d fa53 3dbd 8186 b7bd ea1a 103e
00000350: ac56 283c 42c8 1ebe 862d e8bd 4618 9bbd
00000360: 2d6a c03d 521e 0f3e 3e8b 483d 546f f0bd
00000370: 98aa 47bd 32d0 10bd bf7b ccbd 3ac9 163e
00000380: f3c2 9a3d 3769 b6bd 7c33 0d3e 4e4f b93d
00000390: c7c1 3abd 7418 083e 9521 a6bd f665 19bd
000003a0: 32cb 843c e440 c53d 5cdf d53c 8849 c03d
000003b0: 08c0 2bbd 5c3f 893d 8256 0bbe 5a17 5a3c
000003c0: 899e 173e 08b3 5c3d 83d5 0dbc cf4b 74bd
000003d0: 8dc3 1e3d 2580 1b3e 7887 d83c 2ab1 f3bd
000003e0: 615f ce3d 72b9 0bbd 8a34 efbd be86 6abd
000003f0: 48fd 53bd 9bc4 eabd 3067 86bc a4fc dbbd
0.0070789903 0.13456286 0.02373968 0.0011279583 0.043280765 -0.015078604 0.10365407 -0.12645356
-0.06590314 0.05184424 -0.012272701 0.1311747 0.01214008 -0.07725862 -0.09683825 -0.12513617
-0.05360429 0.13774149 -0.014365464 -0.12378158 0.08046481 0.056931913 -0.059513256 -0.116830595
0.024303064 0.0055969805 0.016285807 0.053209826 0.10118833 -0.0024424493 0.055074245 -0.13118654
0.077780426 0.087262094 0.112295166 -0.10821284 0.04912609 -0.0066880286 -0.024084583 0.033072084
-0.028421812 -0.014889747 0.031255633 -0.07983945 0.009794086 -0.036167577 -0.027370438 -0.046474688
0.122957125 -0.081926316 0.060725957 -0.007885238 -0.048228215 -0.12634967 -0.053050432 0.15402186
0.13147625 0.092945985 -0.06280402 0.066433944 -0.13320799 0.007902012 0.074571855 0.07193728
0.06480876 -0.116384916 0.077685006 -0.012221522 0.10167353 -0.0827433 -0.09417935 0.11127367
-0.07579384 -0.025663966 0.01512626 -0.022033323 -0.0138590885 -0.10315189 0.1414077 0.021732425
0.04465613 0.10755921 0.025355538 0.122690886 -0.05272703 -0.12890618 0.014239449 0.023499092
-0.0509569 0.06262028 -0.111134335 0.004608081 -0.105598785 -0.06919183 -0.02172436 0.04131
-0.08327779 -0.09379676 -0.018002361 0.013708943 0.030504698 -0.13182959 0.03148384 -0.06218226
0.14998674 0.025127018 -0.014227199 0.050059482 -0.0079311775 -0.043851417 -0.124458544 -0.019177664
0.15369031 -0.067387894 0.018799404 0.135234 -0.0009228878 -0.11233779 0.06808481 -0.02810691
-0.114943825 -0.07913701 0.111521415 0.04306134 -0.047443435 0.09698014 0.15229136 -0.03216685
0.138346 -0.10825562 0.08448359 -0.11568542 -0.078405745 -0.0414694 0.011029223 0.07050563
-0.15172598 -0.09111946 -0.082858235 0.098764904 -0.04224762 -0.09441663 0.1371179 -0.09087149
-0.031950038 0.013243706 0.00014578534 -0.11319 0.06468072 0.066435575 0.052653037 0.017247083
0.007692786 -0.06336413 -0.029296678 0.026218154 -0.10057771 -0.02915584 -0.080922656 -0.09911796
-0.114945926 -0.07433895 -0.07339719 0.05080683 0.11668426 -0.07969604 0.00345195 0.09166724
-0.030058654 0.020808747 -0.0039541274 -0.14993107 -0.070514634 0.037164148 0.00474608 0.07345298
-0.07810298 0.10561212 -0.0170838 -0.057760693 0.027599363 0.056405902 0.10495284 -0.014755963
0.09885977 0.028747205 0.008805446 0.05101163 -0.057069026 -0.11926856 -0.14294305 -0.10831849
0.06610395 -0.08000101 -0.052471604 0.077277325 -0.0954172 -0.048482556 0.13030283 -0.13968553
0.14854033 0.027694829 0.0139824385 -0.11174711 0.008815251 -0.0049359994 0.08929991 0.10062798
0.09916343 -0.046222664 -0.089612015 0.14072767 0.01027457 -0.1550608 -0.11336808 -0.07572989
0.093952514 0.1397641 0.048960917 -0.11739984 -0.048746675 -0.0353548 -0.0998454 0.147252
0.07556715 -0.08906787 0.13789171 0.09048329 -0.045594957 0.13290578 -0.08111874 -0.037450753
0.016210172 0.096315175 0.026107483 0.09389025 -0.041931182 0.06701538 -0.13607219 0.0133112315
0.1480657 0.053881675 -0.008656862 -0.05964261 0.03876071 0.15185602 0.026431784 -0.11899026
0.10076786 -0.0341124 -0.11679943 -0.057257406 -0.05175522 -0.11463281 -0.016406626 -0.10741547

bias f4 [50]
00000000: bcd6 3abd 425d 6b3d ebe0 a33d 2f75 dc3d
00000010: 1b89 b83d 3055 853d 501b 4e3d 87ad 133d
00000020: 4b8c 7dbd 0e4e 663d 2cfd afbd 52ae d03b
00000030: 7a00 10be 8077 c5bb d3cd 113d 4215 ba3d
00000040: 0d08 04be a61a 71bd 99a4 dd3d 6718 573d
00000050: 6a16 c63d f438 c6bc 5d50 b8bc dc9f 813d
00000060: 87e5 a93d 43a9 c23d f637 acbd b696 1c3c
00000070: c89a 2dbc d414 8dbc 0a87 78bc 1028 50bd
00000080: ae86 cabd aa4d 123e d5ee 4d3d 2983 823c
00000090: 1f55 4c3d 80ae d13b 77bf d0bd 0011 b13d
000000a0: 5d07 653d 4503 903d 8553 c73d 3b7b c63d
000000b0: b4d0 21bd d87f ffbc 4e10 1bbd 67b4 923d
000000c0: 20a7 8ebc 522c a2bd
-0.045614943 0.057461984 0.08001884 0.107645385 0.09010526 0.06510389 0.050319016 0.03605416
-0.061901372 0.056226783 -0.085932106 0.006368437 -0.14062682 -0.0060262084 0.03559668 0.09086086
-0.12893696 -0.058863305 0.1082241 0.052513506 0.09672244 -0.02419708 -0.022499258 0.06329319
0.08295732 0.0950494 -0.08409111 0.009557417 -0.010595985 -0.017221846 -0.015168915 -0.050819457
-0.09888969 0.14287439 0.050276596 0.015931683 0.049885865 0.006398976 -0.10192769 0.086458206
0.055915225 0.070318736 0.09732727 0.09691473 -0.039505675 -0.03118889 -0.037857346 0.07163315
-0.017413676 -0.0791861

weight f4 [50, 50]
00000000: 2ff8 103e d829 ccbc a885 483d ec00 0ebd
00000010: 8478 c73d d256 923d 2b49 12bd a33e d53d
00000020: 6eb6 46bd b506 8e3d de5c ef3d 972f 993d
00000030: 8254 f2bc f0be d33d 32ae 00be 6f59 b63d
00000040: 122b d73d c840 89bd a8d6 593d d67d e03d
00000050: fa52 de3d 8d84 9c3d 086b 8a3b 8daf 083d
00000060: b8f9 f13d 6021 563d b252 4d3c 2932 b13c
00000070: 1805 123e 19b7 cf3d c925 8e3d 488a 53bd
00000080: 3ae4 593c fe1a 84bd 5b70 ef3d 8e71 243d
00000090: cda1 07be 7da8 74bc 1a56 34bd af1f e4bb
000000a0: 7455 363d 66f5 a13c 5b0b 4fbd d4e7 aabd
000000b0: 97b9 a93d 4880 e13d 6682 86bd 2d9c 9b3c
000000c0: 19d0 ce3b 61d9 f6bc 0e1b d03d 0c40 6fbd
000000d0: 11ba ed3c a076 843d 2713 9f3b e337 efbc
000000e0: dbe9 7d3c e19d b0bd 16c1 15bd baf8 e13c
000000f0: 63ff 05be 581f 403d c830 90bd fb7f 38bb
00000100: 83aa 513c 484c febd 171c 18be 2ea6 a0bd
00000110: 146c 093e 5b10 54bd 29ac bd3d 19f9 20be
00000120: 6224 473d 19b4 d4bd c42b c5bc 219e 233d
00000130: 7648 d03d 0e12 b2bb 47ce 14bd c225 883d
00000140: d5b9 16be 052a dc3d d259 7cbd 9165 fc3c
00000150: a745 7a3d bc63 17be 6a43 bf3d 285a 1dbe
00000160: e797 5a3d 620c 1a3d 05a4 4fbd d257 823d
00000170: dabc a93d d964 58bd b64f dbbd e2d0 9f3d
00000180: 979c 24bd 3aad 8a3c 0481 e53d 3d5e 10be
00000190: a635 e8bc ee08 a63d 3302 febd cf53 1d3e
000001a0: c5c9 da3d 3462 dcbd 53fa 5f3d 0e56 e93d
000001b0: c944 363d bf23 123e 862f e63c 5c9b 173b
000001c0: d5f2 033e cc1f 9c3d 39df c83d 59da 6f3d
000001d0: 900c f4bd 07ba 43bd 8330 32bd 5ee3 6cbd
000001e0: 5885 c33d a14d ec3d d4ff 663d 3317 713d
000001f0: a33d df3d 757d 193e 1187 1a3e c9e9 c33d
00000200: fdf1 8dbd 165d 113e 25aa b9bd 89e7 04be
00000210: bc14 babd 675c 9abb c4f0 00bd 51fb a8bd
00000220: b978 fcbc 074b fbbd 9909 f7bd d368 e03d
00000230: 7852 833d 4617 1d3e df78 033d 6acb 3a3d
00000240: e00c c6bd 49e0 803d 33ab c23c 675d c03d
00000250: 3b7e 183e 3cb3 b2bd 8349 123d 7f72 84bd
00000260: 956a d5bc 545b f0bd 71fe fa3c 3049 83bc
00000270: b0b9 60bc 5ab0 e83d 7be2 e2bd 0ea0 1abd
00000280: 6ede d73c 8a47 b8bb 1a8b 10be 75fc 123d
00000290: 69b3 9dbd 0894 d9bd 0d0e dd3d 2a5e 63bd
000002a0: d59f 493d 088c dbbc 9820 05be 9240 893d
000002b0: 8b2e 00be 376a b0bd fd1e d93c b93a 25bd
000002c0: 9b33 b9bd 877f 23bb 22cc cbbd be58 91bd
000002d0: 055b 2dbd 6c2f 1dbd 0755 1abe f0a9 433d
000002e0: 7637 2f3d caee b73c feff fa3c 2217 6abc
000002f0: 621a 0a3e e575 d03d f702 563d b0c2 f3bd
00000300: d715 9e3c a484 8dbd 74c4 503c a80f dabd
00000310: 9d0c b7bd 43bd f83c c19a e6bd b877 0fbe
00000320: 1d0b a23d 78c4 173e ed7b 0e3e 40f0 cf3c
00000330: 808e 09be f8ee 0fbd c1e8 edbd a055 ee3d
00000340: 8a4d cdbd 1083 173e 7821 143d 45a6 ef3d
00000350: 62f2 073e c200 cdbd 2bd0 d3bd 88ae 5e3d
00000360: 342d e0bd 9c33 cbbd ab9f 4dbd c54e b53d
00000370: faed 3bbc b482 af3c 8313 073d 6282 413d
00000380: e348 53bb 8569 9dbd 96ee 953d 6c5a e33c
00000390: 33b8 2bbb 364b 993d eccd 183d 99c6 d6bd
000003a0: c434 063c 3b57 efbd 04e1 ddbd 6464 dc3d
000003b0: e06c d33c 01aa 62bd 1d08 a7bd 6bdf 03bc
000003c0: c6a5 92bd fed7 58bc 351b 9d3c aa37 483d
000003d0: 7721 0a3e 3b3d dbbd d135 26bd c96c b03d
000003e0: fd62 2d3d 464e 103e a6f2 8ebd da02 eb3c
000003f0: 25fd 45bc e76b 093e 4956 8a3d dec2 acbd
0.14157175 -0.024922296 0.04895559 -0.034668848 0.097397834 0.07145466 -0.03571431 0.10412338
-0.048513822 0.06934873 0.11687635 0.0747978 -0.029581312 0.10339153 -0.1256645 0.08903777
0.10506262 -0.06701809 0.053183228 0.10961501 0.1085567 0.076424696 0.004224185 0.033370543
0.11815208 0.052277923 0.012531923 0.021630364 0.14259756 0.10142345 0.06940801 -0.051645547
0.013299042 -0.06450461 0.11691352 0.040147357 -0.13245316 -0.014932749 -0.044027425 -0.006961785
0.04451509 0.019770335 -0.05054794 -0.08344999 0.082873516 0.11010796 -0.0656784 0.018995369
0.0063114283 -0.030132951 0.1016141 -0.05841069 0.029019387 0.064679384 0.004854578 -0.029201454
0.01549765 -0.08623863 -0.036561094 0.027584422 -0.13085704 0.04690489 -0.07040554 -0.0028152454
0.012797001 -0.12416893 -0.14854465 -0.07844196 0.13420135 -0.05177341 0.092613526 -0.15720023
0.04861868 -0.103859134 -0.02406872 0.039945725 0.10170071 -0.005434281 -0.036329534 0.06647827
-0.14719327 0.10750202 -0.061609097 0.03081015 0.061101582 -0.1478414 0.0933903 -0.15366423
0.05336752 0.037609465 -0.05069353 0.06364407 0.08287974 -0.05283055 -0.10708563 0.07803513
-0.0401884 0.016928304 0.112062484 -0.14098449 -0.028345894 0.08107172 -0.12402763 0.15364002
0.10683016 -0.10760918 0.054682087 0.11393367 0.044499192 0.14271449 0.028098833 0.0023133373
0.12885602 0.07623252 0.09808201 0.058557842 -0.119164586 -0.04778483 -0.043503296 -0.05783402
0.09546918 0.11538244 0.05639632 0.058860015 0.10900428 0.14989264 0.15090586 0.09566075
-0.06930921 0.14195666 -0.090656556 -0.12978949 -0.09085986 -0.0047107222 -0.031479612 -0.0825106
-0.030819284 -0.1227017 -0.120623775 0.10957494 0.06412214 0.1534091 0.032097694 0.045604147
-0.096704245 0.06292779 0.023763275 0.09392815 0.14891903 -0.087255925 0.035714637 -0.06467151
-0.026051799 -0.117361695 0.030638905 -0.01602611 -0.013716146 0.113617614 -0.11078354 -0.037750296
0.02635118 -0.0056237625 -0.14115563 0.035885293 -0.077002354 -0.10623938 0.107936956 -0.055509724
0.049224693 -0.02680017 -0.13000715 0.06701769 -0.12517755 -0.08614009 0.026504034 -0.040339205
-0.09043046 -0.0024947838 -0.099510446 -0.07097004 -0.04232313 -0.038375303 -0.15071498 0.047769487
0.0427775 0.02245273 0.030639645 -0.014287742 0.13486627 0.101787366 0.05224892 -0.11902368
0.019297523 -0.06910065 0.012742151 -0.106475174 -0.08937953 0.030363685 -0.11259986 -0.14010513
0.07912276 0.1482104 0.13914461 0.025383115 -0.13433266 -0.035140008 -0.1161666 0.116374254
-0.10024555 0.1479609 0.03616473 0.11701635 0.13276055 -0.1000991 -0.10342439 0.054365665
-0.10946122 -0.09921953 -0.0502011 0.08852915 -0.011470312 0.021424629 0.032977592 0.047243483
-0.0032239489 -0.07686142 0.07320897 0.027753077 -0.002620232 0.074850485 0.037305757 -0.10487098
0.008191291 -0.1168656 -0.10833934 0.107613355 0.025808752 -0.05533791 -0.08155844 -0.008048872
-0.07160525 -0.01323509 0.019178012 0.04888121 0.13489328 -0.10705038 -0.040578667 0.08614499
0.04233073 0.14092359 -0.06979875 0.028687883 -0.01208428 0.13420068 0.06754739 -0.084356055

bias f4 [50]
00000000: cbe5 f93b 0fb4 89bc 1e48 3e3d db9d 59bd
00000010: a950 b0bb 4575 0e3e a357 40bd aaf0 b13d
00000020: 694a c23c c2cc 0d3e 3103 01be b6cd eb3c
00000030: 9ad1 043e 0299 f63c 73b3 b03d 0c8c 093e
00000040: 25c6 09be ab95 ae3d 54a5 8e3c 443b b3bc
00000050: 9059 703d e0fd 3b3d 356f b6bd 1550 193d
00000060: 41c4 fc3d 4ed1 a23d 0be1 e83d ccbc d03d
00000070: 619a 7f3d 37bd d8bc 10fe fd3d 7581 553c
00000080: 4816 903d d449 183d 0a71 ca3d 5228 85bd
00000090: 5bf6 26bc 4613 41bd 0422 fe3d 1eab 3b3c
000000a0: c58c b1bc 9725 1a3e cded e73d f65e aabd
000000b0: d2b5 79bd 17e4 a9bd 45d2 ebbd 05c8 913d
000000c0: b97c b63d 7642 09bd
0.0076262704 -0.016809491 0.046455495 -0.05312906 -0.005380709 0.13911922 -0.046958577 0.08688481
0.023717122 0.1384764 -0.12598874 0.028784614 0.12970582 0.030102257 0.08627977 0.1343233
-0.13454492 0.08524641 0.017412819 -0.021878846 0.058679163 0.04589641 -0.0890793 0.037429888
0.1234212 0.07950078 0.113710485 0.1019226 0.062403087 -0.026457412 0.12401974 0.013031353
0.070355 0.037179783 0.09884842 -0.06501831 -0.010190572 -0.04713752 0.12408832 0.011454372
-0.02167357 0.15053402 0.11324654 -0.083188936 -0.060964413 -0.08295458 -0.11514715 0.07118229
0.08910508 -0.033510648

weight f4 [50, 50]
00000000: 6f0d ef3d edbf 1b3d 0a2b 4d3c a420 eabd
00000010: c05e 79bd b4f6 8e3d 668a 043d d29d e4bd
00000020: 789f 143e 990e 1c3c d50c ef3d 9bf1 853c
00000030: fccf 82bd b866 d53d a101 103e a29c 683d
00000040: eea1 ebbd dc03 dbbd 7811 03be e30a 79bd
00000050: 0647 853d a5bb 993d 96f0 5d3c b82d cc3d
00000060: ead5 0d3e 2c6f c3bc 64c9 e23d 4af9 0c3d
00000070: c632 2a3d 44ec c7bd 934a bebc 4022 bf3d
00000080: 9a44 92bd c4f3 d23d 3ae5 173d 79fe 36bd
00000090: c938 d4bd 7b90 ff3d 5dff 1fbd c3f2 7bbd
000000a0: d574 213e d730 9e3d ba35 083e 92df 2c3c
000000b0: 8dab 293c e3a6 8f3d ec63 a3bd 4dd8 febd
000000c0: d925 a8bc 1661 893c 3900 76bc 2803 bfbd
000000d0: 74e6 b6bd 13e9 3f3d 6e52 b2bd 54df 263d
000000e0: 9cde 8b3d b6b8 583d 25cc 113d c14b a3bd
000000f0: a8a5 1e3c 7ce9 6cbd b995 db3d d76d 7fbd
00000100: 8603 b93b 74cd c9bd 0b71 783d 88dc fabd
00000110: 5979 9dbd d399 383d f181 80bd 2839 ee3d
00000120: b92a ccbd e604 80bd 9541 9ebd 1027 a63c
00000130: e3f9 88bd 98ef c7bc c9dd 55bc bbd3 bf3c
00000140: e741 f1bc 202c 4dbd c441 193e 5a32 22bd
00000150: 7014 aabd afd6 1ebe 8a95 bcbc eb66 963d
00000160: 4736 8cbd 5317 473d 9aef 9ebd 6fad e9bd
00000170: e301 89bd 2c36 5dbd d4d9 d93d 381d ff3c
00000180: 9d68 e33d 6f2e 883d f49c 5dba a822 983d
00000190: 2a10 613d 11fc 73bd dcc9 d4bc 7963 bbbd
000001a0: d264 1a3e 9032 be3b 8a9b d1bd 891d d73b
000001b0: 66fd a53c 5b68 333c a6a9 db3d 8e48 8abc
000001c0: d644 ad3d 4c2c 19bd 0cae e53c 5f79 f5bd
000001d0: 1275 533d 2a20 1b3d 40a1 e0bd 3c38 d63d
000001e0: 3fff 953c 8119 99bc ce45 d5bd d1f6 14bd
000001f0: 002f f5bd 12dc e3bd 5f2c 9bbd 76ad f33d
00000200: 4f91 d33d f688 efbc a1b3 613d a774 003e
00000210: d13f 54bd d4ce 783b e507 35bd b309 183c
00000220: fe2d 62bd 90e0 aabd 1d5f 603d b2f0 95bd
00000230: e105 8d3c c4cc b3bd b7e7 a23d 3c32 43bd
00000240: 93af fc3d b87f 3d3c 8c93 523d d9a1 f2bd
00000250: fe3e e3bd 9944 4ebc 49ef fb3d 0a3f f7bd
00000260: a948 e73d a4a4 20bd 7a68 d3bd f667 e23d
00000270: 755e 213d db81 01be dc52 1dbe b84b febd
00000280: fb78 9e3d 98d6 13be efac 8f3d 73a2 8a3d
00000290: 5937 c3bd a389 a6bd 969d cc3d 3dd0 bdbd
000002a0: 7d8f 02bd 1db3 16bc 9950 15bd 07a2 87bd
000002b0: 7043 ed3d 44a9 dfbd 77db dc3d af31 76bd
000002c0: 3d5f 8dbd f58f b83d 86ca c0bd 4772 5dbd
000002d0: 32f7 89bd 67cd 0dbd 91a1 cb3d f1d0 e23d
000002e0: 6eb1 a73d 535f b53d 592a b03d 713e a73d
000002f0: 6173 da3c 4df8 b83c 7405 193d 3156 e93d
00000300: e951 a83d 8572 da3d dd45 873d 832b 523d
00000310: 9a40 3c3d 9252 233b fa74 d03d a460 f83d
00000320: caa9 63bd 408a 0b3c cd1d 98bc fb40 933c
00000330: 2241 6c3d cc60 5cbc d993 033e 3503 a53d
00000340: 6502 103e f29a dc3d d6ad 07be d983 123d
00000350: 9b73 223e 6eeb 90bd f7cc 193d e014 78bc
00000360: 12f6 32bc 3292 163e 4234 d43d 98fb 333d
00000370: d8d9 a63d 39cb a1bc 70f1 3e3d 2ebd abbd
00000380: 09b5 4dbd 2e10 8fbc 78e6 f83d 563b b73d
00000390: 9e33 b0bc de79 823d b85e 8b3d a6be a0bd
000003a0: de63 a4bd 4090 343d 990c e3bd 9524 11be
000003b0: e6e4 353d 29c9 bebd b696 e73d 1989 00be
000003c0: db18 8f3d 0f94 82bd e1a0 bd3d 0d9e b4bc
000003d0: 96ec 033e 7d19 413c 4929 abbc a2b9 05be
000003e0: 6164 923b a6ac 1a3d a21f cbbd db35 e5bc
000003f0: 65fc 893d 6c00 85bd 4e14 c1bc b069 113e
0.11672484 0.03802483 0.012522468 -0.11432007 -0.060881376 0.06980649 0.03235855 -0.11162914
0.14513958 0.009524965 0.116723694 0.016350558 -0.06387326 0.10419983 0.14063121 0.05679
-0.11505495 -0.106940955 -0.12799633 -0.060801398 0.06507687 0.075064935 0.01354613 0.09969658
0.13851133 -0.023856722 0.110735685 0.034417428 0.041552328 -0.09761861 -0.02322892 0.093327045
-0.07141991 0.10300401 0.03708384 -0.044676278 -0.103623934 0.12478729 -0.039061893 -0.061510812
0.15767224 0.07724159 0.13301745 0.01055135 0.010355842 0.07014253 -0.07978043 -0.124436
-0.02052586 0.016769927 -0.0150147015 -0.09326774 -0.08930674 0.046853136 -0.087071285 0.040740326
0.06829569 0.05291053 0.035595078 -0.07973433 0.00968305 -0.057839856 0.10721917 -0.06236061
0.005646172 -0.0985364 0.06065468 -0.12249094 -0.07689161 0.045068573 -0.06274784 0.116319954
-0.09969086 -0.06250934 -0.077273525 0.020282298 -0.06688287 -0.02440624 -0.013053366 0.02341639
-0.02945037 -0.05009091 0.14966494 -0.0395988 -0.083046794 -0.15511583 -0.023020525 0.07343849
-0.0684629 0.048606228 -0.07760544 -0.11410033 -0.06689813 -0.05400674 0.106372505 0.031141862
0.11103938 0.066494815 -0.0008453869 0.07428485 0.054947056 -0.05956656 -0.02597516 -0.09149832
0.15077522 0.0058043674 -0.10234745 0.0065648 0.020262431 0.010950173 0.10725717 -0.0168803
0.08460395 -0.03739576 0.028037094 -0.1198604 0.05162532 0.03787247 -0.10968256 0.104599446
0.018310187 -0.018688919 -0.10413705 -0.036368195 -0.11971855 -0.111259595 -0.075768225 0.118983194
0.1033045 -0.029240113 0.055102948 0.125445 -0.051818673 0.0037965076 -0.044196982 0.009279656
-0.055219643 -0.08343613 0.054778207 -0.073212996 0.017214717 -0.0877929 0.07954352 -0.04765533
0.123381756 0.011566095 0.051410243 -0.11847276 -0.11095999 -0.012589597 0.123014994 -0.120725706
0.11293156 -0.039219514 -0.10322662 0.11054985 0.039396722 -0.12647192 -0.1536364 -0.12416786
0.07737919 -0.1443733 0.07015406 0.06769266 -0.09532041 -0.08131721 0.09990995 -0.09268234
-0.031875122 -0.009197977 -0.036453817 -0.06622701 0.11585128 -0.10920957 0.10784047 -0.060105976
-0.06902931 0.090118326 -0.09413628 -0.05406406 -0.06736602 -0.034619715 0.09942926 0.11075009
0.08188139 0.08856072 0.08601827 0.08166207 0.026666345 0.022579337 0.037358716 0.11393393
0.08218748 0.10666374 0.06605122 0.051311027 0.045960046 0.0024921042 0.101785615 0.12127808
-0.055581845 0.008516848 -0.018568898 0.017975321 0.057679303 -0.013450813 0.12849368 0.08057252
0.14063413 0.10771741 -0.13249907 0.03577027 0.15864412 -0.07076155 0.037548985 -0.015141696
-0.010922926 0.14704207 0.1036153 0.04394111 0.08147019 -0.019750224 0.04661697 -0.083856925
-0.050221477 -0.01746377 0.121533334 0.08946864 -0.021508988 0.063709006 0.068051755 -0.07848863
-0.08026861 0.04408288 -0.11086387 -0.14174111 0.044407748 -0.09315712 0.11308043 -0.12552299
0.06987163 -0.06375896 0.09259201 -0.02204802 0.12883219 0.011785862 -0.02089371 -0.13059095
0.0044675325 0.037762307 -0.09918143 -0.027979782 0.067375936 -0.06494221 -0.023569252 0.14200473

bias f4 [50]
00000000: e37e ffbd 7ca2 1f3e 5317 c93c 5461 15be
00000010: 399e 9d3a ab4f 073e 1b68 7fbd e34f 4dbb
00000020: 2192 3dbc 5bfb 03be 550c f1bd b5cd d73d
00000030: 08b5 893d fbe3 163e 7aee 8a3d 7464 3a3c
00000040: 1fcb 47bc d6ae 92bd 3f4b 58bb 00b9 64bd
00000050: 07e4 0b3d 0d19 043e 8019 11bc b05d 9fbb
00000060: 61ed 5e3d 1d1a 4cbd 3b3c 5bbc 2b16 553d
00000070: ec6a 00be c5a0 17bd 80a1 933d f26f 15be
00000080: 6043 573c 7f0a b0bd cd2b 30bd 4f0a 163e
00000090: a06f 1f3d 4c8e cf3d 3761 9a3d 4138 0a3e
000000a0: 181f 8e3c 3c1b 98bc e313 033d e6c4 fc3d
000000b0: 6289 01bd a0b0 103e 6e9c 823d d5cc 63bd
000000c0: a8be 1dbd 2c86 00bc
-0.124753736 0.15589327 0.024547255 -0.14587909 0.0012025303 0.13213985 -0.062355142 -0.0031328134
-0.011570484 -0.12888853 -0.1176993 0.105372824 0.06723982 0.14735405 0.06783767 0.011376489
-0.012194424 -0.071622536 -0.0033003835 -0.055840492 0.03415301 0.12900181 -0.008856177 -0.0048634633
0.0544256 -0.04982959 -0.013381059 0.052023094 -0.12540787 -0.037018556 0.07208538 -0.14593485
0.013138622 -0.08595752 -0.04301052 0.1465237 0.038924813 0.10134563 0.075380735 0.13498022
0.017348811 -0.018567674 0.032001387 0.12342243 -0.03162516 0.14129877 0.06377493 -0.055615265
-0.038511902 -0.007844489
